lib_v5/mixer.ckpt (torch, 1208 bytes, 1 tensors)

linear.weight f4 [8, 10]
000000 97 bb 79 3f 52 1a 9d bd d4 53 b3 bd a3 5c 8a bd
       0.97551864 -0.07671036 -0.08756223 -0.0675595
000010 fb 2d b8 bd 50 0d 7b bd a9 b1 b6 bd b7 6d 86 bd
       -0.08993145 -0.061291993 -0.08920605 -0.06563895
000020 26 db b3 3d ab 43 85 3d 05 24 99 bd 60 a4 77 3f
       0.087820336 0.06507047 -0.07477573 0.9673519
000030 08 c7 82 bd 56 e8 b3 bd 7f f5 89 bd e6 7c a9 bd
       -0.063856184 -0.08784549 -0.06736278 -0.082757756
000040 2e c4 8b bd 24 ef ad bd 6d 42 87 3d ea 65 b0 3d
       -0.06824528 -0.08492878 0.066044666 0.086131886
000050 f5 66 7d be b5 83 1a be 8d 27 44 3f 23 4d 17 be
       -0.24746306 -0.15089305 0.7662285 -0.14775519
000060 70 19 71 be 04 9a 11 be bb e8 7a be 93 c7 22 be
       -0.2354486 -0.14218909 -0.24502842 -0.15896444
000070 98 c3 6c 3e 04 63 18 3e 64 9b 22 be 19 a0 78 be
       0.23121488 0.14881521 -0.1587959 -0.24279822
000080 ef a7 15 be 62 43 42 3f 07 1a 09 be 79 b2 7c be
       -0.14614843 0.7588407 -0.13388835 -0.24677457
000090 a9 06 18 be 13 f9 83 be 11 78 12 3e 23 93 77 3e
       -0.1484629 -0.25775966 0.14303614 0.24177222
0000a0 5a 84 69 be ee 33 00 be f7 55 4f be ab 17 e3 bd
       -0.22804394 -0.1251981 -0.20247637 -0.11088499
0000b0 dd dc 50 3f b2 6b 04 be 1c 54 5e be 58 15 ef bd
       0.8158701 -0.12931708 -0.21711773 -0.11673993
0000c0 1a d2 4f 3e 74 c1 e7 3d db 47 fe bd 13 9a 5e be
       0.20294991 0.11316195 -0.12416049 -0.21738462
0000d0 a3 5f f8 bd ba 1a 41 be 7a 9f 0a be 65 10 54 3f
       -0.12127616 -0.18857852 -0.13537398 0.82837516
0000e0 51 ad 04 be 46 61 51 be e8 cb f8 3d ce 2e 40 3e
       -0.1295674 -0.20447263 0.12148267 0.18767855
0000f0 d8 3b 7c bd e1 4f a0 bc 25 97 8e bd 12 d4 80 bc
       -0.06158051 -0.01956934 -0.06962422 -0.015726123
000100 21 20 9c bd a0 e4 94 bc 4e 6b 78 3f f7 80 c1 bb
       -0.076233156 -0.018175423 0.97038734 -0.0059052664
000110 b2 ab 8b 3d 97 3a 8c 3c 7f ea 9b bc b3 20 76 bd
       0.06819858 0.017117782 -0.019032715 -0.06008978
000120 11 2f 8b bc f7 f1 85 bd c3 52 91 bc 96 75 99 bd
       -0.016990216 -0.06540292 -0.01773966 -0.07493131
000130 35 c0 0f bc 58 26 79 3f 8f 7d 9a 3c d4 0e 89 3d
       -0.008773853 0.9732413 0.0188587 0.06692281
